…
yers\\convolutional\\base_conv.py:107: UserWarning: Do not pass an `input_shape`/`input_dim` argument to a layer. When using Sequential models, prefer using an `Input(shape)` object as the first layer in the model instead.\n  super().__init__(activity_regularizer=activity_regularizer, **kwargs)\n\n\nModel: \"sequential\"\n\n\n\n┏━━━━━━━━━━━━━━━━━━━━━━━━━━━━━━━━━┳━━━━━━━━━━━━━━━━━━━━━━━━┳━━━━━━━━━━━━━━━┓\n┃ Layer (type)                    ┃ Output Shape           ┃       Param # ┃\n┡━━━━━━━━━━━━━━━━━━━━━━━━━━━━━━━━━╇━━━━━━━━━━━━━━━━━━━━━━━━╇━━━━━━━━━━━━━━━┩\n│ conv2d (Conv2D)                 │ (None, 30, 30, 32)     │           896 │\n├─────────────────────────────────┼────────────────────────┼───────────────┤\n│ max_pooling2d (MaxPooling2D)    │ (None, 15, 15, 32)     │             0 │\n├─────────────────────────────────┼────────────────────────┼───────────────┤\n│ conv2d_1 (Conv2D)               │ (None, 13, 13, 64)     │        18,496 │\n├─────────────────────────────────┼────────────────────────┼───────────────┤\n│ max_pooling2d_1 (MaxPooling2D)  │ (None, 6, 6, 64)       │             0 │\n├─────────────────────────────────┼────────────────────────┼───────────────┤\n│ conv2d_2 (Conv2D)               │ (None, 4, 4, 64)       │        36,928 │\n├─────────────────────────────────┼────────────────────────┼───────────────┤\n│ flatten (Flatten)               │ (None, 1024)           │             0 │\n├─────────────────────────────────┼────────────────────────┼───────────────┤\n│ dense (Dense)                   │ (None, 64)             │        65,600 │\n├─────────────────────────────────┼────────────────────────┼───────────────┤\n│ dense_1 (Dense)                 │ (None, 10)             │           650 │\n└─────────────────────────────────┴────────────────────────┴───────────────┘\n\n\n\n Total params: 122,570 (478.79 KB)\n\n\n\n Trainable params: 122,570 (478.79 KB)\n\n\n\n Non-trainable params: 0 (0.00 B)\n\n\n\nEpoch 1/10\n1563/1563 ━━━━━━━━━━━━━━━━━━━━ 17s 10ms/step - accuracy: 0.3583 - loss: 1.7137 - val_accuracy: 0.5424 - val_loss: 1.2747\nEpoch 2/10\n1563/1563 ━━━━━━━━━━━━━━━━━━━━ 18s 11
…
